chatbot_model.tflite (tflite, 49216 bytes, 6 tensors)

sequential/dense_1/BiasAdd/ReadVariableOp f4 [64]
0	0x3d20d67b	0.039267045
1	0xbb58ead0	-0.0033098944
2	0xbcdfc652	-0.027316246
3	0x3d321606	0.043478034
4	0x3bcb29ea	0.006200065
5	0x3cfcb50c	0.030848049
6	0x3d7b41d8	0.06134209
7	0x3d8e354a	0.06943758
8	0x3c373049	0.011180946
9	0x3d8e4537	0.069467954
10	0x3cb80c05	0.022466669
11	0x3ceec92a	0.029148657
12	0x3d32b651	0.0436309
13	0x3d4c5c63	0.049892794
14	0x3ca2c700	0.019870281
15	0x3d83862a	0.06422074
16	0x3b9490a4	0.004533844
17	0x3d554c56	0.052074753
18	0x3d2392d8	0.039934963
19	0xbd232266	-0.039827727
20	0x3cb47595	0.022028724
21	0x3cdc9084	0.02692438
22	0xbd3032cd	-0.043017197
23	0xbc695900	-0.014242411
24	0x3c87a7f9	0.016559588
25	0x3d791f4d	0.060820866
26	0x3d8f9c62	0.070122495
27	0x3dcda9cb	0.10042151
28	0x3cc41269	0.02393456
29	0x3dac70fa	0.08419986
30	0x3df707d1	0.12062038
31	0x3d25bd22	0.040463574
32	0x3d8b5816	0.068039104
33	0x3dd55a84	0.10417655
34	0x3c7ce283	0.015434864
35	0x3d68c7c0	0.05683112
36	0x3bc677c9	0.00605676
37	0xbca94d85	-0.020666847
38	0x3d84e5d8	0.06489152
39	0x3daa65f8	0.0832023
40	0x3d51286b	0.051063936
41	0xbc930c3a	-0.017950166
42	0x3d07980e	0.033103995
43	0x3aa69c32	0.0012711345
44	0x3d65c537	0.05609628
45	0x3d1347fd	0.035957325
46	0x3dc3eea2	0.09567
47	0xbd058352	-0.03259594
48	0x3c271a1f	0.010199099
49	0xbcb6291c	-0.0222364
50	0x3d0e6893	0.0347677
51	0x3babba5e	0.0052407226
52	0x3dc544b8	0.09632248
53	0x3d6d56cf	0.057944115
54	0x3d6cd973	0.057824563
55	0x3d9ec040	0.077515125
56	0x3d3a0fa4	0.045425072
57	0x3c95a723	0.018268174
58	0x3b062300	0.002046764
59	0x3c3faca9	0.01169888
60	0x3c95f662	0.018305961
61	0x3d9cd379	0.07657523
62	0x3a19df34	0.00058697467
63	0x3d9b597c	0.07585427

sequential/dense_2/BiasAdd/ReadVariableOp f4 [5]
0	0xbcd8c280	-0.026459932
1	0x3c382ddb	0.011241402
2	0x3c688d13	0.014193791
3	0xbd11debe	-0.035612814
4	0x3d1608c9	0.036629472

sequential/dense/BiasAdd/ReadVariableOp f4 [128]
0	0xbd34672c	-0.044043705
1	0xbb291007	-0.0025796907
2	0x3bf47dde	0.0074612936
3	0x3cbb5be9	0.022870975
4	0x3cbd6c9f	0.023123084
5	0x3cf0364b	0.029322764
6	0x3ba60903	0.0050669922
7	0x3db9a902	0.09065439
8	0x3dfdc37c	0.12390801
9	0xbbf68738	-0.0075234435
10	0x3e11e90e	0.1424906
11	0x3d119a75	0.035547692
12	0x3dbe9bc3	0.09307053
13	0x3d6893ca	0.056781568
14	0x3d8f3dc7	0.06994205
15	0x3d203665	0.039114375
16	0x3e146b4a	0.14494053
17	0xbc03d813	-0.008047122
18	0x3d268267	0.040651705
19	0x3d757d5a	0.059933998
20	0x3d897a6f	0.067128055
21	0x3e031549	0.12801088
22	0x3cf52b15	0.02992777
23	0x3cdafa77	0.02673076
24	0xbaed80a7	-0.0018120006
25	0x3d7a7a63	0.061151873
26	0x3de9283f	0.113846295
27	0x3cb0b88b	0.021572372
28	0x3df645f4	0.12025061
29	0x3d178eb0	0.03700131
30	0x3d3de1c8	0.0463579
31	0xbcb266f9	-0.021777617
32	0xbcae591c	-0.021282725
33	0x3d182d8a	0.037152804
34	0x3c7164c3	0.014733496
35	0x3cfce798	0.030872151
36	0x3a653d08	0.0008744751
37	0x3cdfad7d	0.027304405
38	0x3d6e44f2	0.05817122
39	0x3dbd00dc	0.092286795
40	0xbbc52538	-0.0060163997
41	0x3bf165b8	0.007366862
42	0x3d576433	0.05258579
43	0x3d0ab5c5	0.033864755
44	0x3d8932c4	0.06699136
45	0xbc01241d	-0.007882145
46	0x3da11cad	0.078667976
47	0xbcab3001	-0.020896913
48	0x3d462b34	0.048381045
49	0x3d4b7474	0.049671605
50	0x3d521f47	0.05129936
51	0x3cd0d0a6	0.025490116
52	0x3de407bd	0.111342885
53	0xbc4f7f6e	-0.012664659
54	0x3c7e3e00	0.015517712
55	0x3d36c071	0.04461712
56	0xba614eac	-0.0008594792
57	0x3d8d46ba	0.06898256
58	0x3d1f487f	0.038887497
59	0x3c941ff9	0.018081652
60	0x3d0d2fd4	0.03446944
61	0x3c947761	0.01812333
62	0x3ce2427a	0.02761959
63	0x3de0ecd7	0.109826736
64	0x3bc2a3aa	0.0059399204
65	0xbcae7662	-0.021296684
66	0x390423a4	0.00012601778
67	0x3db8e05c	0.09027168
68	0x3dde024c	0.10840282
69	0x3d4d36ed	0.05010121
70	0x3d3a6a1c	0.04551135
71	0x3d0ce82a	0.034401096
72	0x3ced291d	0.028950268
73	0x3d389d20	0.04507172
74	0x3cde667c	0.027148478
75	0x3c1b1881	0.009466291
76	0x3d6fbcdb	0.058529716
77	0x3df90ae7	0.121602826
78	0x3d8d5ce7	0.06902485
79	0x3d912820	0.07087731
80	0x3d0c9e03	0.03433038
81	0x3d1ad64e	0.037802033
82	0xbb69a556	-0.0035651526
83	0x3db9c1ca	0.090701655
84	0x3dc6748f	0.096902005
85	0x3dd7ee28	0.105434716
86	0x3ca84f74	0.020545699
87	0x3ca49044	0.020088322
88	0x3deec189	0.11658008
89	0x3d1a90b9	0.037735675
90	0x3c4f84d6	0.012665948
91	0xbc327b6f	-0.010893687
92	0x3db06883	0.08613684
93	0x3d303385	0.043017883
94	0x3dc84ffa	0.09780879
95	0x3ddb5fb3	0.107116126
96	0xbd140777	-0.03613993
97	0x3d0e0f50	0.034682572
98	0x3d200d71	0.03907532
99	0x3d671cca	0.05642394
100	0x3ae53c52	0.001748929
101	0x3d80af7b	0.0628347
102	0x3dad812d	0.08471904
103	0x3dd4da06	0.10393147
104	0xbc56c589	-0.0131086195
105	0x3d8cb530	0.06870496
106	0x3df83652	0.12119736
107	0x3d1e20f1	0.038605634
108	0x3d0e828f	0.03479248
109	0x3de69a8c	0.11259946
110	0x3d9f7369	0.077856846
111	0x3d6b1fd6	0.057403408
112	0xbc1e26cd	-0.0096528055
113	0x3df11dff	0.117732994
114	0x3da9753b	0.08274313
115	0x3d4b54b6	0.049641334
116	0x3ca5d445	0.02024282
117	0x3ce7c570	0.028292388
118	0x3c4a0c14	0.012331981
119	0x3da4b40f	0.08042156
120	0x3d9767ed	0.07392869
121	0x3c48549a	0.012227202
122	0xbc9bf6ad	-0.019038523
123	0x3cfd048f	0.030885963
124	0x3e068de0	0.13140059
125	0xbacffee8	-0.0015868815
126	0x3cdba091	0.026809962
127	0x3dba1568	0.09086114

sequential/dense/MatMul f4 [128, 24]
0	0x3e243144	0.16034418
1	0xbdf46629	-0.11933548
2	0x3e12abb3	0.1432331
3	0xbe2292a3	-0.1587625
4	0xbc8f182d	-0.017467583
5	0xbda46097	-0.080262356
6	0xbdc4fd0f	-0.096185796
7	0xbdf254f0	-0.11832607
8	0x3e4d0368	0.2002083
9	0xbb54c600	-0.003246665
10	0x3df588ca	0.11988981
11	0x3b3b961a	0.0028623403
12	0x3e5a1a3d	0.21299072
13	0xbe32aa20	-0.1744771
14	0x3da78e96	0.08181493
15	0xbe2a1c27	-0.16612302
16	0xbd91e174	-0.0712308
17	0x3d265774	0.040610746
18	0x3e07162e	0.13192055
19	0x3c8b7ed4	0.01702825
20	0x3dabfb62	0.08397557
21	0xbddb0a75	-0.10695354
22	0x3d0f26b6	0.034949027
23	0xbc8381ee	-0.016053166
24	0x3dc3294a	0.0952936
25	0xbe1e87c9	-0.15481485
26	0xbe11a7e3	-0.142242
27	0x3cd509a0	0.026005566
28	0xbd4a800e	-0.04943853
29	0xbe085342	-0.1331301
30	0x3df60d77	0.12014287
31	0x3e467f15	0.19384415
32	0xbe230561	-0.1592002
33	0xbe10c096	-0.14135966
34	0xbdc07cad	-0.0939878
35	0xbd357d3c	-0.044308886
36	0x3e3337e0	0.17501783
37	0x3b0b6f80	0.0021276176
38	0xbe3f1933	-0.18661956
39	0x3e1aadfd	0.15105434
40	0xbd665698	-0.056234926
41	0x3e556727	0.20840131
42	0xbd3cdb40	-0.04610753
43	0xbde5fc37	-0.11229747
44	0xbd026020	-0.031829953
45	0xbe3e511e	-0.18585631
46	0x3de64ae8	0.11244756
47	0x3e363796	0.17794642
48	0xbd95a69a	-0.07307167
49	0x3a02d7e4	0.00049912767
50	0xbe2209af	-0.15824006
51	0xbc73116d	-0.014835698
52	0x3e8452f9	0.25844553
53	0x3ddcb7d4	0.1077725
54	0x3dd910af	0.10598885
55	0xbe081c97	-0.13292156
56	0x3de672e5	0.11252383
57	0x3e338715	0.17531998
58	0x3de2bd3e	0.11071251
59	0x3e1315ce	0.14363787
60	0x3d1de54f	0.038548764
61	0x3e43340d	0.19062825
62	0x3d8b0960	0.067888975
63	0xbd086044	-0.03329493
64	0xbd99d268	-0.07510835
65	0x3dd3e344	0.10346082
66	0x3e55d484	0.2088185
67	0x3dd1cd66	0.10244255
68	0x3e4591fc	0.1929397
69	0xbc81b8be	-0.015835162
70	0x3d5b91cc	0.05360584
71	0x3dc27b9e	0.09496234
72	0x3e981a2c	0.29707468
73	0xbe37f23a	-0.17963496
74	0xbe4b419b	-0.19849245
75	0x3de6091a	0.11232205
76	0xbd98fe1b	-0.07470342
77	0xbdd66804	-0.10469058
78	0x3e3686a1	0.17824794
79	0x3dc14b24	0.0943816
80	0xbc818eb8	-0.015815124
81	0xbbfeb4c0	-0.007773012
82	0xbcb1ada7	-0.02168925
83	0x3d133f7c	0.035949215
84	0xbe25f085	-0.16205032
85	0xbe2cad50	-0.16862988
86	0xbd966d06	-0.07345013
87	0x3bab5ee0	0.005229816
88	0xbdc736e8	-0.097272694
89	0xbe02fd16	-0.12791857
90	0xbd4c3014	-0.04985054
91	0xb9d43000	-0.00040471554
92	0xbe068d60	-0.13139868
93	0xbd630694	-0.055426195
94	0xbd165b64	-0.03670825
95	0xbdf25a01	-0.11833573
96	0xbe22245b	-0.15834181
97	0xbe287d4f	-0.16454051
98	0x3e2e113b	0.1699876
99	0x3e09d90c	0.13461703
100	0xbda5e1e1	-0.080997236
101	0x3d18bccc	0.037289426
102	0xbe2b2ce4	-0.16716343
103	0xbd162d94	-0.03666456
104	0x3dd9590e	0.10612689
105	0x3db20867	0.08693009
106	0xbdc0f7d5	-0.0942227
107	0xbce08138	-0.027405366
108	0x3c701276	0.014652839
109	0x3e58b996	0.21164545
110	0xbb5e2ee9	-0.0033902472
111	0xbdf3d2e4	-0.119054586
112	0xbe46d4ef	-0.19417165
113	0xbdbfaad2	-0.09358753
114	0xbd79ebb0	-0.061015785
115	0x3cedb658	0.029017612
116	0x3c694bf0	0.014239296
117	0xbe48bb11	-0.1960261
118	0xbe0050ce	-0.12530825
119	0xbd123af4	-0.035700753
120	0xbd83176d	-0.064009525
121	0xbdb8cbec	-0.0902327
122	0xbdce2136	-0.10064928
123	0xbe061ae0	-0.1309619
124	0xbc54e5e2	-0.012994261
125	0xbc490ffa	-0.0122718755
126	0x3dff9cfe	0.12481116
127	0x3e29a3ef	0.16566442
128	0xbdbb1872	-0.09135522
129	0x3e3215d5	0.17391141
130	0x3d5d4f8c	0.05403094
131	0xbb792fe6	-0.0038022934
132	0x3dcaaa3c	0.09895751
133	0xbd8255da	-0.06364031
134	0x3d440ce4	0.047863856
135	0xbd08c8bb	-0.033394556
136	0x3cf34591	0.029696258
137	0x3d8f9b7c	0.07012078
138	0x3d60f82a	0.054924168
139	0x3e4cd0af	0.20001481
140	0x3e5dcde0	0.21660566
141	0x3e03df80	0.12878227
142	0xbd6f04f8	-0.058354348
143	0xbe1985eb	-0.14992492
144	0x3e8e7f19	0.27831343
145	0x3e1bef8b	0.15228097
146	0xba6b15ca	-0.00089677854
147	0x3dd3819d	0.10327456
148	0x3c9bc117	0.01901297
149	0x3a449a88	0.00074998336
150	0x3da22caa	0.07918675
151	0x3df734c8	0.12070614
152	0xbd065202	-0.032793052
153	0xbdb4eb0d	-0.08833895
154	0x3d649f23	0.055815827
155	0xbd3957fc	-0.045249924
156	0x3d143752	0.03618557
157	0xbe29dfd6	-0.16589293
158	0x3e052a5d	0.13004442
159	0x3e48a4b4	0.1959408
160	0xbd8ce545	-0.06879667
161	0x3e06adeb	0.13152282
162	0x3dea4c79	0.11440367
163	0xbe320728	-0.17385542
164	0xbde045cc	-0.10950813
165	0x3be6735a	0.007032794
166	0xbd36b8a3	-0.044609677
167	0xbdc71e9a	-0.09722634
168	0xbcf2f090	-0.029655725
169	0xbc1d57a3	-0.009603414
170	0x3e8ad366	0.2711441
171	0xbd34304e	-0.04399138
172	0xbd880f6f	-0.06643569
173	0x3db6984a	0.089157656
174	0x3e5e60df	0.21716641
175	0x3e09a519	0.13441886
176	0xbdabf22a	-0.083957985
177	0x3e228cf7	0.15874086
178	0xbdc72db2	-0.097255126
179	0x3d651c28	0.055935055
180	0x3df908f8	0.12159914
181	0xbe0b4d1a	-0.1360363
182	0xbc16bdaa	-0.009200493
183	0xbd505e8d	-0.05087142
184	0xbd974099	-0.07385368
185	0x3e820ca1	0.2540026
186	0x3d90b78a	0.07066257
187	0x3e1680ce	0.14697573
188	0x3d1b45d2	0.037908383
189	0x3e6fbab9	0.23411073
190	0x3db4c3bc	0.08826396
191	0xbd523d4b	-0.051327985
192	0x3e1c6fca	0.15277019
193	0xbda3f669	-0.080059834
194	0x3e233eff	0.15942
195	0x3cb5570d	0.022136236
196	0xbd234644	-0.039861932
197	0xbb17c0f6	-0.0023155785
198	0xbe23feb1	-0.16015126
199	0x3e74d2e3	0.23908572
200	0x3d99769a	0.074933246
201	0x3d0e2a5d	0.03470837
202	0x3e2a840b	0.16651933
203	0xbd90735c	-0.07053253
204	0xbc06b39b	-0.008221532
205	0xbe2288f5	-0.15872557
206	0xbc63ddfa	-0.013907904
207	0xbdc06897	-0.09394949
208	0x3dae7a25	0.08519391
209	0x3d26d36f	0.040728983
210	0x3e099457	0.13435493
211	0xbe463f3e	-0.19360062
212	0xbe0518b9	-0.12997712
213	0xbe341efe	-0.17589948
214	0xbdab755f	-0.08371996
215	0xbdc78b92	-0.09743418
216	0x3e24b4ef	0.16084646
217	0x3c949378	0.018136725
218	0x3da93e2c	0.082638115
219	0x3e558382	0.20850947
220	0x3e241ebc	0.16027349
221	0xbdee70a9	-0.11642582
222	0xbd32d266	-0.043657683
223	0x3dcddd86	0.10052018
224	0x3e14e0d2	0.14538887
225	0x3d757768	0.059928328
226	0xbe2b7e2d	-0.16747351
227	0x3e2ad377	0.1668223
228	0x3dd2a874	0.10286036
229	0x3e15f14c	0.14642829
230	0xbc974987	-0.018467678
231	0x3d91da45	0.0712171
232	0x3d8c5542	0.06852199
233	0x3e160413	0.14649992
234	0x3ddd482a	0.1080478
235	0x3e5f92c7	0.21833335
236	0xbe162e6d	-0.14666148
237	0xbe10e5ca	-0.14150158
238	0x3dcec1ed	0.10095582
239	0xbcba92bc	-0.022775047
240	0x3dbfbaec	0.093618244
241	0xbd77adf0	-0.060468614
242	0xbe3edcdd	-0.1863894
243	0xbe25f9a0	-0.16208506
244	0xbe1c169b	-0.15242998
245	0x3e345cc7	0.17613517
246	0xbd91203c	-0.07086226
247	0xbdfe8b6a	-0.12428935
248	0x3d92617a	0.071474984
249	0xbe008d38	-0.1255387
250	0xbe695cec	-0.22789353
251	0x3d5b43c5	0.053531427
252	0xbdc8c8df	-0.09803938
253	0xbd881d84	-0.06646255
254	0xbe408957	-0.18802391
255	0x3d49d5a0	0.049275994

sequential/dense_1/MatMul f4 [64, 128]
0	0xbe60a359	-0.21937312
1	0xbc4327d7	-0.011911354
2	0xbe0a1514	-0.13484603
3	0x3c376184	0.011192683
4	0x3c9f26d3	0.019427693
5	0x3dc75865	0.09733657
6	0x3ca1f0b9	0.019768106
7	0x3e255200	0.16144562
8	0x3dd0ba76	0.101918146
9	0x3d5e0a02	0.054208763
10	0xbe1caf3c	-0.15301222
11	0x3dc3049d	0.09522364
12	0xbd582691	-0.052771155
13	0x3e623cd0	0.2209351
14	0x3e2e4e76	0.17022118
15	0xbe67c2d3	-0.22632913
16	0x3e3aa525	0.1822706
17	0x3e1e5278	0.15461147
18	0xbdad6e51	-0.08468307
19	0xbc8f4976	-0.017491084
20	0x3e214444	0.15748698
21	0x3de85cd2	0.11345829
22	0x3dbd3b5b	0.09239837
23	0xbdb1f5c1	-0.08689452
24	0x3d60c37b	0.054873925
25	0x3e1a1a2c	0.15049046
26	0x3ce270d9	0.0276417
27	0x3db63c79	0.08898253
28	0x3e16395c	0.14670318
29	0xbd99f37d	-0.07517145
30	0x3ddf0427	0.10889464
31	0xbdc21e0b	-0.094783865
32	0xbd31aacb	-0.04337577
33	0x3da3ef63	0.08004644
34	0xbe325c1c	-0.1741795
35	0x3d2e48fb	0.04255007
36	0xbd7bc634	-0.061468318
37	0x3df6bdf2	0.12047948
38	0x3dd17eda	0.10229273
39	0xbe1404b2	-0.14454916
40	0x3e13669c	0.14394611
41	0xbdf6a98e	-0.12044059
42	0x3cfd2c99	0.030905055
43	0xbe250b91	-0.16117693
44	0xbe094b70	-0.13407683
45	0x3dea5c49	0.11443383
46	0x3d8c347e	0.068459496
47	0x3da6bd4b	0.081415735
48	0x3d3f2585	0.04666664
49	0x3e37d40a	0.1795198
50	0xbd69e4dc	-0.057103023
51	0x3c754223	0.0149693815
52	0x3e2a9bc5	0.16660984
53	0x3e068a73	0.13138752
54	0x3e500dcd	0.20317765
55	0x3d876bda	0.06612368
56	0xbe249cf6	-0.16075501
57	0xbe0107da	-0.12600651
58	0xbd78ff4b	-0.06079034
59	0xbdbf86bd	-0.09351871
60	0x3d4bb533	0.049733352
61	0x3ce9b40d	0.028528238
62	0x3d4b0d47	0.04957321
63	0xbd8e706d	-0.06955037
64	0x3dd06b8d	0.10176764
65	0xbddef695	-0.108868755
66	0x3e19686a	0.14981237
67	0x3db5cfd7	0.08877533
68	0x3de24f8d	0.11050329
69	0x3e2b6cfa	0.1674079
70	0xbe363d4d	-0.17796822
71	0xbe628029	-0.22119202
72	0x3e69322b	0.22773044
73	0x3e458b1c	0.19291347
74	0xbe8271a0	-0.25477314
75	0xbde1651e	-0.11005615
76	0xbdca037b	-0.09863945
77	0x39f85d1f	0.00047371627
78	0xbdca59db	-0.0988042
79	0xbd7e3e76	-0.062071286
80	0x3dfec858	0.12440556
81	0xbd69620a	-0.056978263
82	0x3e20c2d5	0.15699323
83	0x3e6dce44	0.23223215
84	0x3e4be30a	0.19910827
85	0xbd84085e	-0.064469084
86	0x3ddd41ad	0.10803542
87	0xbde3f0e7	-0.11129933
88	0xbe805849	-0.25067356
89	0xbc92b771	-0.017909737
90	0x3e2597cc	0.16171187
91	0x3c94468d	0.018100047
92	0x3e49eb2c	0.19718617
93	0x3e85f27c	0.26161563
94	0x3e48aa3a	0.19596186
95	0x3df210b0	0.11819589
96	0x3d44399f	0.047906514
97	0x3d63cb33	0.055613708
98	0x3ddab9d2	0.10679974
99	0x3e6f91c8	0.23395455
100	0xbdd04a0d	-0.10170374
101	0x3e2ac585	0.1667691
102	0xbe173368	-0.14765704
103	0xbd91eb21	-0.071249254
104	0x3e37849a	0.17921677
105	0x3c1fd779	0.0097559625
106	0xbe5b6b96	-0.2142776
107	0xbe517962	-0.2045646
108	0xbe45142f	-0.1924598
109	0x3e5c6bc3	0.21525483
110	0x3d466f23	0.048445832
111	0xbdc04a47	-0.09389167
112	0xbdac5687	-0.08414941
113	0x3d54e6f5	0.05197807
114	0xbc31bc09	-0.010848054
115	0xbcb46be3	-0.0220241
116	0xbd2112b3	-0.039324474
117	0x3cd63517	0.026148362
118	0x3dc7c6b7	0.09754699
119	0xbe00854c	-0.12550849
120	0xbe1a3bb9	-0.15061845
121	0xbe022df6	-0.12712845
122	0xbcd349ae	-0.02579197
123	0xbe1dfae2	-0.15427735
124	0x3dc33008	0.095306456
125	0xbe071385	-0.1319104
126	0xbdd4b85b	-0.103867255
127	0x3e56b24d	0.20966454
128	0x3de7d2f5	0.11319534
129	0x3dcdd679	0.10050673
130	0x3e14857b	0.14504044
131	0x3da51f69	0.08062632
132	0x3d607921	0.054803018
133	0x3d690e81	0.056898598
134	0xbd996fc0	-0.07492018
135	0x3cfd66bf	0.030932782
136	0xbe22caf8	-0.15897739
137	0xbdb942b6	-0.09045927
138	0xbddd0968	-0.1079281
139	0xbdb5c18d	-0.088748075
140	0x3e4c4de2	0.19951585
141	0x3e0833ee	0.1330106
142	0x3e0b02c2	0.13575271
143	0xbe3bd283	-0.18342023
144	0xbba36a20	-0.0049870163
145	0x3e459cdc	0.19298118
146	0xbb624b96	-0.0034529916
147	0x3c9dc845	0.019260535
148	0x3d0f7282	0.035021313
149	0xbd12de2b	-0.035856407
150	0x3d246543	0.040135633
151	0x3cf0eb4f	0.029409079
152	0x3cd21b7a	0.025647867
153	0x3ddb684d	0.10713253
154	0xbe05cab0	-0.130656
155	0x3d129ac9	0.035792146
156	0x3de3a396	0.11115186
157	0x3e45ebf8	0.19328296
158	0xbd76745d	-0.060169566
159	0x3e02619a	0.12732545
160	0x3d9eab2c	0.07747492
161	0x3c7b5810	0.01534082
162	0x3e228f50	0.15874982
163	0xbc44287b	-0.011972542
164	0x3e362f7f	0.17791556
165	0xbd855a37	-0.06511348
166	0x3dc8c962	0.09804036
167	0xbd2084ef	-0.039189275
168	0x3db9fa2c	0.090809196
169	0x3d8a6d7b	0.06759163
170	0x3df44915	0.11928002
171	0x3e10e861	0.14151146
172	0x3e33107f	0.17486762
173	0xbdec8644	-0.11549047
174	0x3e7f85bc	0.2495336
175	0x3e338c3e	0.17533967
176	0x3dbafb8a	0.091300085
177	0x3c332073	0.010933029
178	0xbcacd6ac	-0.021098457
179	0x3da53ec7	0.080686145
180	0x3c4c5e7d	0.0124737
181	0x3c6b42bc	0.014359172
182	0x3e2b5279	0.1673068
183	0x3db4ab97	0.08821791
184	0x3e0ee5fb	0.13954918
185	0x3d3b23c0	0.04568839
186	0x3e34e5bf	0.17665766
187	0x3e1e890d	0.15481968
188	0x3dcc7abc	0.09984347
189	0x3e32a84e	0.17447016
190	0x3e2696df	0.1626849
191	0x3d5f50fb	0.05452059
192	0xbdadb607	-0.084819846
193	0xbdebd4a5	-0.11515168
194	0xbdf22c2f	-0.118248336
195	0xbe038bbb	-0.12846272
196	0xbc238d32	-0.009982394
197	0xbd819e2f	-0.06328999
198	0xbd055c9d	-0.032559026
199	0x3c07f58b	0.008298288
200	0x3d68ffbf	0.056884523
201	0xbde5db1c	-0.112234324
202	0xbe0d5d60	-0.13805151
203	0xbd345904	-0.044030204
204	0xbabefeb2	-0.0014571755
205	0x3e41c84a	0.1892406
206	0x3e1252eb	0.14289443
207	0x3c3675fb	0.011136527
208	0xbc1918b7	-0.009344271
209	0xbe089ee7	-0.13341866
210	0x3e2683ae	0.1626117
211	0x3e4d0dae	0.2002475
212	0x3e621a01	0.22080232
213	0xbde2698a	-0.11055286
214	0x3e3dfeae	0.18554184
215	0xbe07c58e	-0.13258955
216	0xbe156334	-0.14588624
217	0xbdd7b50c	-0.10532579
218	0x3d8bafff	0.06820678
219	0xbe047b56	-0.12937674
220	0x3d48101e	0.048843496
221	0x3db9c7f1	0.09071339
222	0x3cad5029	0.021156387
223	0x3d597c4b	0.05309705
224	0x3de4f326	0.111791894
225	0xbe2ed189	-0.17072119
226	0x3e1625a8	0.14662802
227	0x3e0a816a	0.1352593
228	0x3cf88d26	0.030340742
229	0xbd87d964	-0.06633261
230	0x3d8f6a63	0.070027135
231	0xbd68794d	-0.056756306
232	0xbd473f7f	-0.04864454
233	0xbe19c7b0	-0.15017581
234	0x3d3628f4	0.04447265
235	0x3c0cb30e	0.008587612
236	0x3c486a13	0.012232321
237	0x3e2c0c73	0.16801624
238	0xbcd61f9b	-0.026138118
239	0x3d7bc886	0.06147053
240	0x3c86818e	0.016419198
241	0xbd3a42a5	-0.045473713
242	0xbe1505be	-0.14552972
243	0xbda580ac	-0.08081183
244	0xbdfa4b85	-0.122214355
245	0xbd8a57bc	-0.06755015
246	0xbe2ead59	-0.17058314
247	0x3c9b39ab	0.018948397
248	0x3d4140d0	0.04718095
249	0x3e48e593	0.19618826
250	0x3d4e71bc	0.050401434
251	0xbe35e1a7	-0.17761861
252	0xbd5471bd	-0.05186628
253	0x3e1628f7	0.14664064
254	0xbdc87a7b	-0.09788986
255	0xbde7cf61	-0.11318851

sequential/dense_2/MatMul f4 [5, 64]
0	0xbe58a203	-0.21155553
1	0xbe1b7c40	-0.15184116
2	0xbdce3c33	-0.10070076
3	0x3e8f5494	0.27994215
4	0x3e8e64af	0.2781119
5	0x3d59c31b	0.053164583
6	0xbe96e622	-0.29472452
7	0x3e81f7b4	0.25384295
8	0x3ea48b46	0.32137507
9	0xbd9bec6b	-0.076134525
10	0xbe7a75ed	-0.24459048
11	0x3eb163e7	0.34646532
12	0x3da27ba7	0.07933741
13	0x3ece2e56	0.40269727
14	0x3e8c782c	0.27435434
15	0xbeab6aef	-0.3348002
16	0xbdc124e0	-0.094308615
17	0x3d83de7b	0.06438919
18	0xbe3fbb38	-0.18723762
19	0xbddbf36c	-0.107397884
20	0xbe1b7255	-0.15180333
21	0x3e60a422	0.21937612
22	0x3e7fc1e7	0.24976312
23	0x3e757145	0.2396899
24	0x3e6775cd	0.22603531
25	0xbe3dd13f	-0.18536852
26	0xbec15ecc	-0.37767637
27	0xbd39b88d	-0.045342017
28	0x3dda42bd	0.106572606
29	0xbe037e62	-0.1284118
30	0xbeb997ce	-0.3624863
31	0xbeac0855	-0.33600107
32	0xbec0f7a6	-0.3768894
33	0xbe85995c	-0.26093566
34	0x3e6aef32	0.22942808
35	0xbe641ee9	-0.22277416
36	0x3e4a2d07	0.19743739
37	0x3e84e2f0	0.2595439
38	0x3e1dcd7c	0.15410417
39	0xbea88ced	-0.32920018
40	0x3da48bf4	0.080345064
41	0x3e83da54	0.2575251
42	0xbea341ea	-0.31886226
43	0xbe97e9d1	-0.29670575
44	0x3ec1851e	0.37796873
45	0x3e7732f2	0.24140528
46	0x3e0d2ea6	0.13787326
47	0xbcf026c4	-0.02931536
48	0x3bb6a1f6	0.0055735065
49	0x3e155bd2	0.14585808
50	0x3d997da5	0.07494668
51	0x3e007563	0.1254478
52	0xbe5763ca	-0.2103416
53	0xbea9cfe9	-0.33166435
54	0x3b399934	0.0028320076
55	0xbec2d422	-0.3805247
56	0x3dcf428c	0.10120115
57	0x3e93f77c	0.28899753
58	0xbe0f3c85	-0.1398793
59	0xbe819f56	-0.25316876
60	0xbc6e4a4f	-0.014544084
61	0x3e424beb	0.18974273
62	0xbe540ca5	-0.20707949
63	0xbc1bd06b	-0.00951014
64	0x3e6dfdac	0.232413
65	0x3cbf86cf	0.023379711
66	0xbe5df579	-0.21675672
67	0xbe54cc49	-0.20781054
68	0xbeac0b06	-0.3360216
69	0xbe642211	-0.2227862
70	0x3ec76973	0.3894764
71	0xbe12dc50	-0.14341855
72	0x3e47af6e	0.19500515
73	0xbe7dea66	-0.24796447
74	0xbe8e82d3	-0.27834186
75	0xbe2e2133	-0.17004852
76	0x3d440f83	0.047866356
77	0xbea6ba2d	-0.32563916
78	0xbc55e7b6	-0.0130557325
79	0xbda0184e	-0.07817136
80	0xbe6c33f4	-0.23066694
81	0xbe17bdf6	-0.14818558
82	0xbe31166f	-0.17293714
83	0xbe8422e6	-0.25807875
84	0xbc8bb222	-0.017052714
85	0xbe8cf07d	-0.27527228
86	0xbe7ecbc5	-0.2488242
87	0xbe8ce5dc	-0.2751912
88	0xbdba4ba4	-0.090964586
89	0xbe560a37	-0.20902334
90	0x3e8f9c42	0.28048903
91	0xbe3b1434	-0.18269426
92	0xbe9cd8ba	-0.306341
93	0xbeaad0b3	-0.3336235
94	0xbea90159	-0.3300884
95	0xbdf56f15	-0.11984078
96	0x3eaac3a1	0.33352378
97	0xbe9e1d6c	-0.30881822
98	0x3e7644a8	0.24049628
99	0x3ea02b3a	0.3128298
100	0xbe23f94f	-0.16013072
101	0x3d0b7d75	0.034055192
102	0xbee5df6c	-0.4489702
103	0x3e901fdf	0.28149316
104	0xbe3ae2fb	-0.18250649
105	0x3e641e94	0.2227729
106	0x3bf95bd7	0.007609825
107	0xbe528ee5	-0.20562322
108	0x3cff61f2	0.031174634
109	0xbc99a5ac	-0.018755756
110	0xbebf655c	-0.3738202
111	0xbe972931	-0.29523614
112	0xbd3b307d	-0.04570054
113	0xbe4dd824	-0.20101982
114	0xbd9bcfb0	-0.076079726
115	0x3e452c1f	0.19255112
116	0x3e9022de	0.28151602
117	0x3e2282be	0.15870187
118	0xbe9338f3	-0.28754386
119	0x3e806c1c	0.2508248
120	0xbeadede2	-0.33970553
121	0xbd77b7d7	-0.060478058
122	0xbeaf9e53	-0.3430048
123	0xbd7f6a9a	-0.062357523
124	0x3e8cfd34	0.2753693
125	0xbea5031d	-0.32228938
126	0xbd7e42f1	-0.06207556
127	0x3ea31bfe	0.31857294
128	0xbddf3213	-0.10898223
129	0xbe2c6c86	-0.16838273
130	0xbd8e39df	-0.06944632
131	0x3d79cc7b	0.060986023
132	0xbe3851d1	-0.1799996
133	0x3e47a051	0.1949475
134	0x3e65fbd7	0.2245935
135	0x3ea239cc	0.3168472
136	0xbe6b74af	-0.2299373
137	0xbebc2c0c	-0.36752355
138	0x3d998145	0.07495359
139	0xba8c1ee1	-0.0010690355
140	0x3d8293e7	0.063758664
141	0xbdd7746a	-0.10520251
142	0xbe6e9e9f	-0.23302697
143	0x3dcaaefd	0.098966576
144	0xbe3d6ed6	-0.18499312
145	0xbea441e9	-0.32081535
146	0x3e2bd341	0.16779806
147	0x3e843841	0.25824168
148	0xbd599428	-0.05311981
149	0xbd4ee93c	-0.0505154
150	0x3e7b0a8e	0.24515745
151	0xbe585f23	-0.21130042
152	0xbdebd697	-0.11515539
153	0xbe3f8415	-0.18702729
154	0xbd1fc524	-0.039006367
155	0x3eb57451	0.35440305
156	0x3e89230e	0.26784557
157	0x3e0e109a	0.1387352
158	0xbdd20556	-0.10254924
159	0xbecfb1af	-0.4056525
160	0x3e6d8297	0.23194347
161	0xbd5120b0	-0.051056564
162	0xbe5ab50e	-0.2135813
163	0xbdf223f8	-0.11823267
164	0xbd7b9e68	-0.061430365
165	0x3c9364b1	0.01799235
166	0x3e1f41f2	0.155525
167	0xbd108e6b	-0.03529207
168	0xbe7fc27c	-0.24976534
169	0xbe4b6199	-0.1986145
170	0xbea93dc4	-0.33054936
171	0xbdbfbe04	-0.093624145
172	0x3e03dc11	0.12876917
173	0x3e0822b8	0.13294494
174	0x3e1394e8	0.14412272
175	0x3d0fc6fa	0.03510187
176	0x3d966e10	0.073452115
177	0x3ce03fea	0.027374227
178	0xbde2c4c8	-0.11072689
179	0xbe7116f5	-0.23543914
180	0xbeaf9cfc	-0.34299457
181	0xbea89c76	-0.3293187
182	0x3d4b1110	0.04957682
183	0x3e40a2d3	0.18812113
184	0x3e80ede3	0.25181493
185	0xbe006c27	-0.12541257
186	0xbde1925a	-0.110142425
187	0xbd8dd012	-0.06924452
188	0xbe4dc137	-0.20093237
189	0x3e9febbc	0.3123454
190	0x3e620c72	0.2207506
191	0xbe7d7d54	-0.2475484
192	0x3d60ee0a	0.05491451
193	0x3e86091b	0.26178822
194	0xbe2f5f76	-0.17126259
195	0x3b8dc91d	0.004326953
196	0x3e5ff205	0.21869667
197	0x3e8cef4a	0.27526313
198	0xbcf5ff44	-0.030028947
199	0xbd5f1a52	-0.05446846
200	0xbe8fb830	-0.2807021
201	0x3eb097a7	0.34490702
202	0x3e29ebac	0.16593808
203	0xbe05b1ff	-0.13056181
204	0xbe3bb68f	-0.1833136
205	0xbe827793	-0.25481853
206	0x3c8128d0	0.015766531
207	0xbe9a40a2	-0.30127436
208	0x3eba8280	0.3642769
209	0xbecb98da	-0.39765054
210	0x3ea7ca9c	0.32771766
211	0xbe1dab9d	-0.15397497
212	0x3eba9160	0.36439037
213	0xbe484370	-0.19556975
214	0xbd7887b8	-0.060676306
215	0x3dcf8e66	0.10134582
216	0xbe8a82fb	-0.27053055
217	0xbe962226	-0.29322928
218	0xbdc66f34	-0.09689179
219	0xbe8b0b2d	-0.27156964
220	0xbe8d14af	-0.27554843
221	0xbe7027bf	-0.23452662
222	0x3d3a9566	0.045552634
223	0x3e82356e	0.2543139
224	0x3d4a0b84	0.04932739
225	0xbec75282	-0.38930136
226	0xbe08f8a6	-0.13376102
227	0xbe6d53e2	-0.2317653
228	0x3e2dafd9	0.16961612
229	0x3e67f14c	0.22650641
230	0xbd0c05bc	-0.034185156
231	0xbe9cb84a	-0.3060935
232	0x3d913be9	0.07091505
233	0xbd9dd002	-0.0770569
234	0x3e824417	0.25442573
235	0x3e986029	0.29760864
236	0x3c7fd65e	0.015615074
237	0xbe52481b	-0.20535319
238	0xbeacf0b8	-0.33777404
239	0x3e8dd07a	0.27698117
240	0x3ead2eb5	0.33824697
241	0x3d817554	0.06321207
242	0xbea6a982	-0.325512
243	0xbd67059c	-0.056401834
244	0xbdc2332b	-0.09482416
245	0x3d49a9a6	0.049234055
246	0xbe500233	-0.20313339
247	0xbe1c507d	-0.15265079
248	0x3e3b1707	0.18270503
249	0xbe96e0f3	-0.29468498
250	0x3eb37d5e	0.35056585
251	0x3e9a24d4	0.30106223
252	0x3dce13bd	0.100623585
253	0xbec0c9cd	-0.37653962
254	0x3d724b8c	0.05915408
255	0xbe9a6956	-0.3015849
